ppo_citylearn_10.pth (torch, 112359 bytes, 12 tensors)

actor_log_std f4 [1, 5]
0.00861194 0.030201148 0.002320146 -0.03516743 0.00045872375
00000000: 1819 0d3c 6668 f73c 970d 183b b90b 10bd
00000010: dc80 f039

actor_mean.0.weight f4 [64, 140]
0.08525315 -0.07477618 -0.0012914396 0.045804612 0.04774424 -0.02646947 0.0036119684 0.06483045
-0.07516179 0.08136933 -0.037742835 -0.004494686 -0.07988403 -0.055296805 -0.035912946 -0.01724772
0.07606787 0.00792921 -0.01160009 0.08275466 -0.028091038 0.01387915 0.07568617 0.010440081
0.009286792 -0.0154114 -0.047011755 -0.0027295924 0.087769225 -0.058836836 -0.043960046 -0.054350756
-0.04770522 0.021313779 -2.6720281e-05 -0.03120272 0.07937349 -0.014307098 0.04349337 0.06256278
0.057186324 0.009634154 0.07987736 0.057290636 0.021971479 0.018059768 -0.05908147 0.06264611
0.009454316 0.0090067405 0.01486735 0.058371753 0.033400834 -0.07304193 0.05421628 0.0050685923
0.0724122 -0.078524135 -0.03815315 0.02860476 0.0006796341 0.042763267 0.034721505 0.015513036
-0.06749917 -0.0070291087 -0.035572123 -0.07076439 -0.05518466 0.004427454 0.06808713 -0.071449466
0.01879071 0.08186575 0.062975064 -0.004883353 -0.024659697 -0.053393587 -0.009497933 0.08264843
0.052964944 0.049430188 -0.045754876 0.061986465 0.022495164 0.04146132 -0.0030801888 -0.03353031
0.015381991 0.06645802 -0.029003376 0.028892398 -0.025636803 0.0056515597 -0.03041423 -0.06587566
0.065920144 -0.055693578 0.058082815 -0.006404463 -0.07699175 -0.007888722 0.011082852 0.021973658
0.035511512 -0.038048793 -0.035260234 -0.070593104 -0.042193145 0.0053934385 -0.029163204 -0.06486353
0.007587515 0.032061163 -0.038203735 -0.009181674 -0.007299696 0.032461334 -0.014744793 0.026101395
-0.08216851 0.039894383 -0.07928913 -0.026045 0.06429493 0.06421628 -0.057531204 -0.05367738
0.03336061 0.043779943 -0.04556707 0.0053353882 0.056702293 0.019600742 -0.045436423 -0.00312756
0.08301568 -0.046359427 0.045988604 0.02956029 -0.061432753 0.07691887 -0.03477713 -0.07552963
-0.028212734 -0.0139198555 0.058607772 0.006449424 0.024078017 -0.06948525 0.04969152 0.014629807
0.04801832 0.001404452 0.005743882 0.059224952 0.07611187 0.059052106 -0.015016569 0.027254486
-0.084989004 0.009252901 0.04935655 0.0041234717 0.011945975 -0.07412147 -0.08261485 -0.07265679
-0.013234737 0.03609917 -0.050145168 0.010637868 -0.010139389 0.061318338 -0.004802729 0.033682697
-0.026368262 -0.018759718 -0.06333553 0.0019194525 -0.07020331 0.004217464 -0.008373203 -0.015189743
-0.0070361476 -0.053264413 -0.040806975 -0.0020176002 -0.049944457 0.017678441 0.055346176 0.045907944
-0.037768357 0.067100756 0.022906147 0.008210529 -0.0017916037 0.08252385 0.018592605 -0.087668754
-0.050518204 0.064890966 -0.032853443 -0.036374994 -0.049513705 0.07291839 -0.07291908 0.006118121
-0.0727707 0.040906433 0.085796885 -0.07170196 -0.08246291 -0.029276226 0.067208946 0.041453157
0.06727658 0.034622148 -0.048709 -0.0016705468 -0.045246225 -0.022674367 0.006210179 -0.07794056
-0.08282227 -0.021485718 -0.05826075 0.050142083 -0.026161097 0.0262683 -0.05856811 0.07409558
-0.055492483 -0.017673071 0.01041311 -0.06754326 0.071274176 -0.024007006 0.08783125 0.009576233
-0.058607973 0.023791894 -0.03253014 0.019132927 -0.09320278 0.081744656 0.046412483 -0.0440329
-0.05477262 -0.03598711 0.028103992 -0.027135786 -0.09029299 -0.07437726 -0.029906183 0.054782167
00000000: 3499 ae3d 4124 99bd 8645 a9ba 9e9d 3b3d
00000010: 778f 433d 80d6 d8bc c6b6 6c3b d4c5 843d
00000020: 6dee 99bd f7a4 a63d 3b98 1abd 2948 93bb
00000030: 3d9a a3bd e77e 62bd 7419 13bd 174b 8dbc
00000040: 79c9 9b3d 84e9 013c 4e0e 3ebc 467b a93d
00000050: 2d1f e6bc 6065 633c 5a01 9b3d e00c 2b3c
00000060: a127 183c 1980 7cbc 668f 40bd f6e2 32bb
00000070: 5ac0 b33d e5fe 70bd 730f 34bd e69e 5ebd
00000080: 8c66 43bd 3c9a ae3c 5e25 e0b7 d99c ffbc
00000090: 918e a23d 5268 6abc 1b26 323d ea20 803d
000000a0: 353c 6a3d 92d8 1d3c be96 a33d 96a9 6a3d
000000b0: 88fd b33c 14f2 933c 69ff 71bd 9b4c 803d
000000c0: 47e6 1a3c 0291 133c 3096 733c 3817 6f3d
000000d0: 50cf 083d 0297 95bd e411 5e3d 6f16 a63b
000000e0: d94c 943d 43d1 a0bd 7a46 1cbd 8854 ea3c
000000f0: 7929 323a 8928 2f3d 2338 0e3d 642a 7e3c
00000100: 013d 8abd 7054 e6bb 13b4 11bd ecec 90bd
00000110: 4f09 62bd 2d14 913b 4471 8b3d 1954 92bd
00000120: faee 993c 3ba9 a73d 12f9 803d 8904 a0bb
00000130: 2203 cabc 3cb3 5abd 389d 1bbc 9443 a93d
00000140: c5f1 583d 4f77 4a3d 7769 3bbd 85e5 7d3d
00000150: c747 b83c 58d3 293d fedc 49bb 1457 09bd
00000160: bf04 7c3c 241b 883d 7d98 edbc c0af ec3c
00000170: 4604 d2bc b830 b93b 4327 f9bc d1e9 86bd
00000180: 2401 873d f31e 64bd 3fe8 6d3d 88dc d1bb
00000190: daad 9dbd b33f 01bc da94 353c 1a02 b43c
000001a0: 8574 113d 0dd9 1bbd 096d 10bd 1e93 90bd
000001b0: b8d2 2cbd 71bb b03b ace7 eebc 2cd7 84bd
000001c0: b0a0 f83b 9152 033d 857b 1cbd bb6e 16bc
000001d0: 4a32 efbb 2df6 043d 2594 71bc 98d2 d53c
000001e0: f747 a8bd 4b68 233d 5762 a2bd 535c d5bc
000001f0: 0fad 833d d383 833d d7a5 6bbd d0dc 5bbd
00000200: 23a5 083d 9952 333d 89a4 3abd 7bd4 ae3b
00000210: aa40 683d bc91 a03c 8b1b 3abd c0f7 4cbb
00000220: 2004 aa3d 62e3 3dbd 8c5e 3c3d 6c28 f23c
00000230: e9a0 7bbd a487 9d3d 7772 0ebd 47af 9abd
00000240: 641e e7bc 1b10 64bc b40e 703d b155 d33b
00000250: 433f c53c 484e 8ebd 5689 4b3d dcb1 6f3c
00000260: dcae 443d 9715 b83a 2d37 bc3b dd95 723d
00000270: 8ae0 9b3d 9fe0 713d 0e08 76bc cd44 df3c
00000280: b70e aebd 7b99 173c 182a 4a3d 301e 873b
00000290: 0db9 433c ffcc 97bd f931 a9bd 15cd 94bd
000002a0: 83d6 58bc b9dc 133d 0565 4dbd 744a 2e3c
000002b0: ae1f 26bc f028 7b3d 3660 9dbb def6 093d
000002c0: 4102 d8bc fbad 99bc 0fb6 81bd 2396 fb3a
000002d0: c1c6 8fbd a732 8a3b c22f 09bc 66de 78bc
000002e0: 7c8f e6bb c92b 5abd 3725 27bd b739 04bb
000002f0: 8f92 4cbd 61d2 903c acb2 623d f809 3c3d
00000300: feb2 1abd 1f6c 893d aca5 bb3c 7485 063c
00000310: 3fd4 eaba 4402 a93d 854f 983c ad8b b3bd
00000320: 2dec 4ebd 8ee5 843d 5591 06bd f2fd 14bd
00000330: e2ce 4abd 3d56 953d 9956 95bd 857a c83b
00000340: ce08 95bd 818d 273d 47b6 af3d 7ad8 92bd
00000350: 50e2 a8bd b2d4 efbc d8a4 893d c9ca 293d
00000360: 4ec8 893d f4cf 0d3d 1783 47bd 40f6 daba
00000370: 1b54 39bd 98bf b9bc c27e cb3b 4d9f 9fbd
00000380: b99e a9bd d102 b0bc d3a2 6ebd c961 4d3d
00000390: cc4f d6bc 9e30 d73c 1de5 6fbd 6cbf 973d
000003a0: 164c 63bd 1ec7 90bc c09b 2a3c 1f54 8abd
000003b0: 32f8 913d 57aa c4bc dfe0 b33d a2e5 1c3c
000003c0: ea0e 70bd 38e7 c23c 533e 05bd a8bc 9c3c
000003d0: 19e1 bebd be69 a73d 041b 3e3d d85b 34bd
000003e0: 4159 60bd 3867 13bd 583a e63c de4b debc
000003f0: 88eb b8bd 1b53 98bd d0fd f4bc 4463 603d

actor_mean.0.bias f4 [64]
0.03473052 -0.073730946 -0.022130126 0.08259548 0.012138951 0.027509551 0.019717893 -0.037955984
0.028968602 0.069802515 -0.041471723 0.030039862 0.07291694 0.059166275 0.04104351 0.07923546
0.0828611 0.024648346 -0.08594179 -0.0008425209 -0.08488383 0.047018964 -0.037313502 0.06924118
-0.08388827 0.014915681 0.052560557 -0.0185768 -0.03778233 -0.008823556 -0.03832332 0.024978084
0.052914545 -0.08329356 -0.014450196 -0.04295202 -0.0011348724 0.054506864 -0.00995719 -0.004522042
-0.005620873 -0.025438083 -0.02077561 -0.01988834 0.08358514 0.057894677 0.035376355 -0.026799986
0.08320778 -0.004321196 -0.040514167 -0.028239323 0.01508248 -0.080405675 0.03039641 -0.03742987
0.06622707 0.044516966 0.0037453028 0.03350632 -0.015923757 0.016412413 -0.077736534 0.06728169
00000000: 9741 0e3d 4000 97bd 3d4a b5bc d227 a93d
00000010: 73e2 463c b65b e13c 6b87 a13c bc77 1bbd
00000020: 904f ed3c 9ff4 8e3d 41de 29bd 2816 f63c
00000030: 7a55 953d 5658 723d 3d1d 283d 3346 a23d
00000040: 15b3 a93d 54eb c93c 4002 b0bd 9fdc 5cba
00000050: 93d7 adbd f596 403d 0bd6 18bd 52ce 8d3d
00000060: 9dcd abbd e760 743c bd49 573d 602e 98bc
00000070: a5c1 1abd ad90 10bc eaf8 1cbd d79e cc3c
00000080: ecbc 583d d095 aabd 84c0 6cbc 75ee 2fbd
00000090: 00c0 94ba 9742 5f3d 7b23 23bc a32d 94bb
000000a0: 4d2f b8bb 8763 d0bc 9d31 aabc dfec a2bc
000000b0: b02e ab3d f822 6d3d cce6 103d a58b dbbc
000000c0: d768 aa3d d298 8dbb 2ff2 25bd 2756 e7bc
000000d0: 821c 773c bbab a4bd e401 f93c 1050 19bd
000000e0: 0fa2 873d 6c57 363d c173 753b ec3d 093d
000000f0: 8a72 82bc 5373 863c 5534 9fbd fcca 893d

actor_mean.2.weight f4 [64, 64]
0.07420511 0.033830985 -0.09313433 -0.062851876 -0.0033679567 -0.13662726 0.053386826 0.04035893
-0.049216162 0.07322678 -0.007265295 -0.110798396 -0.031667903 0.020224389 -0.04782713 -0.10115207
0.13889703 0.005464991 0.09702063 -0.06489109 0.027941883 -0.09051676 -0.05777042 -0.10094764
0.041688774 0.07905609 0.09120242 0.08044654 0.037063036 -0.04199867 -0.041618094 0.08851475
0.07829158 -0.085087165 -0.12906244 0.030623514 0.022640076 -0.054655354 0.05877708 0.041274168
0.017495697 -0.034361713 -0.05490873 -0.12793356 0.02421614 0.060700994 0.022232309 0.07789202
0.09047436 0.07875892 -0.036473133 -0.13282374 0.06684284 -0.063319325 0.0563813 -0.07191968
0.011945834 -0.0779164 0.034033567 -0.09504228 -0.016992632 0.07306734 0.037102047 0.062403724
0.08372538 0.10936438 0.08163567 0.032524884 -0.10970077 -0.028009994 0.042010706 0.11972984
-0.09667181 0.055415824 0.10142917 -0.08733916 0.023738166 0.062293798 0.08724157 -0.045074753
0.08104879 -0.04686193 0.013271976 0.008179636 0.14742395 -0.11088846 0.013881938 -0.060352072
-0.08523115 -0.122151025 -0.044110745 -0.11100313 0.12630077 0.11686689 0.03208096 0.12702899
-0.10110396 -0.12196854 -0.07918019 0.030059641 0.057195116 -0.040111892 -0.10170403 -0.07766043
-0.033974383 -0.11919014 -0.02730051 -0.006792107 -0.12842336 -0.0066482355 -0.06492344 -0.03465668
0.07542316 0.040112723 -0.072204374 -0.069250755 0.07122689 0.0005598044 -0.021799522 0.11142612
-0.123682484 -0.041857585 -0.035095334 0.056647588 -0.06981906 -0.08171736 -0.0007275446 0.108194456
0.035203934 0.07097408 -0.038760714 0.07881218 -0.034395453 -0.14155968 -0.09704418 0.044229273
0.124359526 0.062466588 -0.009514931 0.02682973 -0.09926407 -0.027464062 -0.015321808 -0.03503467
-0.055578288 -0.024159187 -0.03315302 -0.12932476 0.12657358 0.11871664 -0.011455826 0.052563686
0.011817754 0.039649624 -0.07662303 0.033934943 -0.07162191 0.08135171 0.12266502 0.023834348
-0.057050165 -0.13542604 0.051054 -0.11930284 0.0072788983 0.06332678 0.09109093 -0.030763792
-0.082507335 0.009574335 0.08378889 0.079587646 0.099207446 -0.04111729 0.06274677 0.13215715
-0.06278144 0.0025280374 0.04257002 0.09213981 0.10034349 -0.03677054 -0.10027622 0.003809897
0.0013516346 -0.045766864 0.013816269 -0.057685737 0.137915 0.018262295 -0.0063044596 -0.06847729
0.06545873 0.028148033 -0.120832175 0.05758266 -0.078312695 -0.13012531 -0.00057393557 0.034501247
0.059886165 0.047622677 0.017937278 0.016271375 -0.01677178 -0.07109483 0.09048067 -0.0765932
0.124705754 0.089887574 -0.07260093 -0.025048655 -0.07373383 0.01951629 0.0042604073 0.05771806
-0.10830965 0.0073073623 -0.07616288 -0.090003304 0.07354847 -0.07131638 0.051429648 0.082107216
0.109513454 -0.11175381 -0.043086812 -0.054733098 0.006182202 0.109222345 0.03050894 0.051546093
0.07160054 0.08319068 0.031298693 -0.09442872 0.0019746148 0.07344819 -0.11132811 0.121025056
0.0831756 0.0037719954 0.038128443 0.0058980873 -0.12144495 0.060852446 0.09669226 0.05996631
0.005268748 -0.04163275 0.012382137 0.01673962 0.08758813 -0.09642813 -0.063168734 -0.08573917
00000000: d9f8 973d 5c92 0a3d 36bd bebd 7cb8 80bd
00000010: f0b8 5cbb 04e8 0bbe 25ac 5a3d 684f 253d
00000020: e396 49bd ecf7 953d b611 eebb 45ea e2bd
00000030: 34b6 01bd 9ead a53c 61e6 43bd d128 cfbd
00000040: 063b 0e3e ab13 b33b c1b2 c63d 9fe5 84bd
00000050: 60e6 e43c da60 b9bd ada0 6cbd a3bd cebd
00000060: d9c1 2a3d 29e8 a13d 56c8 ba3d 28c1 a43d
00000070: 69cf 173d cc06 2cbd bc77 2abd 3947 b53d
00000080: 5657 a03d 2e42 aebd f228 04be 2ade fa3c
00000090: ae77 b93c 4bde 5fbd 3cc0 703d 1a0f 293d
000000a0: 2353 8f3c debe 0cbd fae7 60bd 0401 03be
000000b0: ed60 c63c 9ba1 783d 8820 b63c da85 9f3d
000000c0: 9f4a b93d 5b4c a13d da64 15bd f202 08be
000000d0: e6e4 883d 90ad 81bd 14f0 663d a04a 93bd
000000e0: 76b8 433c a292 9fbd c866 0b3d 87a5 c2bd
000000f0: 2234 8bbc 54a4 953d 51f8 173d 0c9b 7f3d
00000100: 3678 ab3d 6ffa df3d 9a30 a73d d038 053d
00000110: ccaa e0bd 3775 e5bc 6b13 2c3d eb34 f53d
00000120: dffb c5bd b4fb 623d 19ba cf3d e0de b2bd
00000130: 8b76 c23c c827 7f3d b5ab b23d 4ea0 38bd
00000140: e8fc a53d 4cf2 3fbd b472 593c e103 063c
00000150: 4ef6 163e 7d19 e3bd 1171 633c bc33 77bd
00000160: ab8d aebd 512a fabd 78ad 34bd 9c55 e3bd
00000170: fd54 013e e857 ef3d 5367 033d e313 023e
00000180: 980f cfbd a4ca f9bd 3929 a2bd a33f f63c
00000190: 6d45 6a3d 5e4c 24bd 344a d0bd 6e0c 9fbd
000001a0: b928 0bbd f619 f4bd 52a5 dfbc 5390 debb
000001b0: 6a81 03be 71d9 d9bb 95f6 84bd 2af4 0dbd
000001c0: 7577 9a3d 3d4d 243d e3df 93bd 57d3 8dbd
000001d0: 67df 913d d6bf 123a e994 b2bc 6133 e43d
000001e0: 3e4d fdbd dc72 2bbd 20c0 0fbd 4d07 683d
000001f0: 4cfd 8ebd 6e5b a7bd b1b8 3eba 0e95 dd3d
00000200: 0032 103d dc5a 913d 8ec3 1ebd 4868 a13d
00000210: 3fe2 0cbd 05f5 10be 19bf c6bd c129 353d
00000220: 35b0 fe3d f7dc 7f3d 83e4 1bbc 06ca db3c
00000230: f64a cbbd 50fc e0bc 5208 7bbc 8480 0fbd
00000240: 0fa6 63bd 7de9 c5bc 76cb 07bd b66d 04be
00000250: 819c 013e b621 f33d 38b1 3bbc 054d 573d
00000260: 419f 413c a567 223d 89ec 9cbd 5eff 0a3d
00000270: 82ae 92bd ba9b a63d cc37 fb3d 4040 c33c
00000280: 6fad 69bd 20ad 0abe 001e 513d 0c55 f4bd
00000290: d383 ee3b 79b1 813d e28d ba3d 5904 fcbc
000002a0: 9bf9 a8bd acdd 1c3c 8299 ab3d d9fe a23d
000002b0: 462d cb3d 9a6a 28bd 6181 803d 3454 073e
000002c0: 8e93 80bd 6ead 253b e75d 2e3d ccb3 bc3d
000002d0: e380 cd3d b59c 16bd 9e5d cdbd 77af 793b
000002e0: 5529 b13a 0976 3bbd a25d 623c e147 6cbd
000002f0: 9739 0d3e cf9a 953c a495 cebb d23d 8cbd
00000300: 3a0f 863d b496 e63c dc76 f7bd ccdb 6b3d
00000310: 6862 a0bd 923f 05be 2a74 16ba 2e51 0d3d
00000320: 324b 753d ff0f 433d 33f1 923c 8c4b 853c
00000330: f964 89bc 2b9a 91bd ee4d b93d e5dc 9cbd
00000340: bb65 ff3d fa16 b83d ccaf 94bd d632 cdbc
00000350: c301 97bd a0e0 9f3c e39a 8b3b c669 6c3d
00000360: 73d1 ddbd 9972 ef3b 49fb 9bbd a753 b8bd
00000370: 95a0 963d 520e 92bd e5a7 523d d427 a83d
00000380: 9748 e03d 2edf e4bd cc7b 30bd d02f 60bd
00000390: 1294 ca3b f7af df3d e2ed f93c ff21 533d
000003a0: 4ea3 923d e05f aa3d 0f33 003d d863 c1bd
000003b0: 8a68 013b 016c 963d feff e3bd fcdb f73d
000003c0: f857 aa3d 9533 773b 922c 1c3d be44 c13b
000003d0: 21b8 f8bd 6a40 793d 9706 c63d 3c9f 753d
000003e0: 76a5 ac3b 1a87 2abd 72de 4a3c 8721 893c
000003f0: 6861 b33d 1d7c c5bd 9c5e 81bd 0598 afbd

actor_mean.2.bias f4 [64]
0.12984969 -0.102156445 0.011717927 -0.09748085 -0.018504715 -0.0104984725 -0.06881657 0.07724809
0.111523084 -0.14627345 -0.106254846 0.032729983 -0.11992814 0.1023833 0.07776326 -0.03929602
-0.10409229 0.10031314 -0.07268821 -0.056666795 -0.04927231 0.07111076 0.11715531 -0.12057353
0.048301782 0.057458907 -0.067737885 0.11155248 0.0324988 -0.03442907 -0.015680665 -0.032932706
0.1433541 -0.024336103 -0.1211476 -0.06790936 0.09917697 0.090809084 0.073645845 0.05289264
0.09635159 0.11092068 -0.02371127 -0.1108546 0.003986029 -0.10499404 -0.054391783 -0.035879
-0.1108887 -0.0063489825 0.09127894 -0.034317784 -0.115884885 0.022674277 -0.096758924 0.09191689
0.032342255 0.022107849 0.015342436 0.118363425 0.108664736 0.12652905 -0.11279002 0.052996155
00000000: 51f7 043e 6637 d1bd 8cfc 3f3c 0aa4 c7bd
00000010: 3397 97bc c901 2cbc b4ef 8cbd 3f34 9e3d
00000020: 3766 e43d b5c8 15be 249c d9bd e00f 063d
00000030: e29c f5bd 56ae d13d 5842 9f3d ddf4 20bd
00000040: 572e d5bd fa70 cd3d 8edd 94bd 711b 68bd
00000050: c3d1 49bd 85a2 913d 20ef ef3d 41ef f6bd
00000060: 17d8 453d 085a 6b3d 29ba 8abd a075 e43d
00000070: 761d 053d 7f05 0dbd bd74 80bc 72e4 06bd
00000080: 6bcb 123e 825c c7bc 3c1c f8bd 1014 8bbd
00000090: 4c1d cb3d 1dfa b93d a2d3 963d f4a5 583d
000000a0: fb53 c53d 622a e33d 233e c2bc bd07 e3bd
000000b0: 3c9d 823b 1e07 d7bd ebc9 5ebd dcf5 12bd
000000c0: 9d19 e3bd 200b d0bb 74f0 ba3d ce90 0cbd
000000d0: 0e55 edbd 68bf b93c 8b29 c6bd ec3e bc3d
000000e0: 5079 043d 851b b53c d75e 7b3c 8668 f23d
000000f0: 9e8b de3d d590 013e 74fe e6bd 7f12 593d

actor_mean.4.weight f4 [5, 64]
-0.019990383 0.031011304 0.085235156 0.09156462 -0.104913175 -0.035058953 -0.08248616 -0.110955074
0.08606317 0.049975734 -0.038084276 -0.0388925 -0.0850194 -0.07802755 0.06405278 0.07101272
-0.14042623 0.10151759 -0.10128687 0.10613339 -0.096995175 -0.07545056 0.020268401 0.0034392525
0.028618032 0.0042766053 0.02717737 0.07353435 -0.1302886 -0.01983064 0.06639099 0.080179095
-0.061760735 0.10885432 0.071179986 0.09660232 -0.1287238 0.041049216 0.07345144 0.028738601
-0.08109929 -0.03291478 -0.12244921 0.112589404 0.034078456 0.041228857 0.09898883 -0.0312513
-0.10732394 -0.042300437 -0.09238939 0.014854486 0.13911226 0.031894483 -0.043621957 0.018663714
-0.05539886 0.06658267 0.04537918 0.10269643 0.024003245 -0.14733285 0.023490638 0.008441806
-0.05990999 -0.05428437 -0.092902206 -0.062979594 0.067970864 -0.0004692513 0.12812546 0.018849434
-0.12634589 0.09097412 -0.057312336 0.0036790303 -0.011536737 -0.09422701 0.0025408464 -0.054576285
0.033419438 0.099588126 -0.045574747 -0.10284584 0.11656562 0.03757028 0.024371276 0.09328937
-0.063216805 -0.07797075 0.06685224 0.052642737 -0.11350069 0.029863225 0.027453413 -0.08878106
-0.0794828 0.019494982 -0.015671093 0.08115062 0.12253566 0.10680815 -0.027036909 0.027331583
-0.040977467 -0.00904292 -0.080688074 -0.110957496 -0.049635407 -0.01861438 0.051307205 0.09117515
0.08549951 -0.064837575 -0.09984926 0.093195 -0.09816148 -0.07326614 0.12440952 -0.04770931
-0.090468 0.020458506 0.05051669 -0.1329989 0.10154535 -0.04800745 0.024798308 -0.08065075
0.0593851 -0.112473145 0.02812836 -0.091953695 0.037427153 0.06662056 -0.07293332 0.025298225
-0.082823485 -0.12600085 -0.027282095 -0.034412175 -0.11453345 -0.051499035 -0.096209526 0.031544205
-0.0394496 -0.04476794 0.10569048 0.03635872 -0.13419403 0.027098108 0.018748196 -0.0023502544
-0.049673233 -0.103962496 -0.048993964 0.012740357 -0.105324745 0.08320046 -0.05595491 0.10470946
0.12387876 -0.014118785 -0.056139305 0.1296886 0.06300378 -0.01683143 0.09014683 0.009412133
0.042242326 0.08487146 -0.15305816 0.11810364 -0.012872471 0.04964843 -0.10065916 0.035555962
0.0456632 0.04156565 0.06306723 -0.03723729 -0.07008462 -0.10057019 0.057087854 0.13680325
-0.12755641 0.09069306 -0.078059115 0.03253728 0.012560003 0.019565346 0.008634679 0.015508075
0.12978342 0.13144974 0.13368571 0.11491412 0.08553319 0.10289349 -0.066913925 0.060021274
-0.09241577 -0.1167097 0.017443286 -0.16121109 0.080711104 -0.013254358 0.077140875 -0.041841034
-0.057091646 0.09151414 -0.043515056 -0.033541806 0.065199755 -0.032177463 -0.024302099 -0.01711845
-0.09098792 0.03620702 -0.006912442 -0.11258053 -0.094221674 -0.052443888 -0.0565499 0.042171497
0.055699944 0.04116495 -0.08523762 0.05629243 -0.08666216 -0.09113668 -0.06216891 0.12143939
-0.05723255 -0.03357903 -0.042806108 -0.06419153 -0.12314985 0.14585379 -0.056686804 0.016648058
0.012402669 0.0057556117 0.12361979 0.040167015 -0.042903915 0.08925794 0.0048288032 0.003856719
-0.029129095 -0.03430549 0.03696745 0.0536138 -0.019597918 -0.06888306 -0.095716886 -0.10420917
00000000: dfc2 a3bc 6b0b fe3c c58f ae3d 3b86 bb3d
00000010: b8dc d6bd fa99 0fbd 81ee a8bd 6a3c e3bd
00000020: e341 b03d 5bb3 4c3d 42fe 1bbd be4d 1fbd
00000030: a71e aebd e8cc 9fbd 1b2e 833d 1e6f 913d
00000040: e5cb 0fbe 74e8 cf3d 7e6f cfbd 765c d93d
00000050: 68a5 c6bd d385 9abd eb09 a63c 1565 613b
00000060: 5d70 ea3c c422 8c3b 13a3 de3c 2d99 963d
00000070: 606a 05be de73 a2bc 00f8 873d f034 a43d
00000080: d3f8 7cbd 04ef de3d d0c6 913d 70d7 c53d
00000090: 2cd0 03be 3923 283d b56d 963d 376d eb3c
000000a0: 6217 a6bd a6d1 06bd a7c6 fabd 4695 e63d
000000b0: da95 0b3d 97df 283d a8ba ca3d 5d01 00bd
000000c0: a7cc dbbd 3943 2dbd a636 bdbd 3b60 733c
000000d0: 7273 0e3e caa3 023d f0ac 32bd a5e4 983c
000000e0: eae9 62bd 7f5c 883d 85df 393d 8252 d23d
000000f0: 74a2 c43c 6cde 16be 706f c03c 804f 0a3c
00000100: 2d64 75bd 4a59 5ebd 8343 bebd 72fb 80bd
00000110: 4f34 8b3d d805 f6b9 5233 033e 216a 9a3c
00000120: d160 01be a450 ba3d 57c0 6abd e31b 713b
00000130: 9504 3dbc 17fa c0bd 5484 263b 628b 5fbd
00000140: d2e2 083d dcf4 cb3d 96ac 3abd d7a0 d2bd
00000150: f5b9 ee3d 4be3 193d 45a6 c73c 7f0e bf3d
00000160: d077 81bd 21af 9fbd d4e9 883d e99f 573d
00000170: 0d73 e8bd b9a3 f43c fbe5 e03c d8d2 b5bd
00000180: e1c7 a2bd f1b3 9f3c aa60 80bc 4c32 a63d
00000190: faf3 fa3d 3bbe da3d 827c ddbc 7ce6 df3c
000001a0: fdd7 27bd c128 14bc ca3f a5bd af3d e3bd
000001b0: 7f4e 4bbd 2f7d 98bc 8127 523d 09ba ba3d
000001c0: 5e1a af3d 90c9 84bd c57d ccbd 05dd be3d
000001d0: e308 c9bd 8f0c 96bd 6bca fe3d d66a 43bd
000001e0: 4947 b9bd 9998 a73c 97ea 4e3d dd30 08be
000001f0: 02f7 cf3d 76a3 44bd d225 cb3c 382c a5bd
00000200: ca3d 733d 5258 e6bd 726d e63c 3852 bcbd
00000210: 374d 193d 5c70 883d 115e 95bd 393e cf3c
00000220: 5c9f a9bd 5e06 01be b37e dfbc c8f3 0cbd
00000230: 8390 eabd a7f0 52bd 8009 c5bd 7f34 013d
00000240: e795 21bd 965e 37bd 4074 d83d e2ec 143d
00000250: 296a 09be dafc dd3c d195 993c ba06 1abb
00000260: 2976 4bbd 4aea d4bd e5ad 48bd eebc 503c
00000270: 80b4 d7bd 0165 aa3d fa30 65bd ea71 d63d
00000280: 26b4 fd3d 7a52 67bc 54f2 65bd 17cd 043e
00000290: 2008 813d 11e2 89bc e79e b83d 5935 1a3c
000002a0: 4a06 2d3d 17d1 ad3d 47bb 1cbe 52e0 f13d
000002b0: 0ee7 52bc 275c 4b3d 6426 cebd 21a3 113d
000002c0: 5609 3b3d be40 2a3d 6429 813d 2186 18bd
000002d0: 8688 8fbd bef7 cdbd f4d4 693d 2716 0c3e
000002e0: 269e 02be 48bd b93d 75dd 9fbd d045 053d
000002f0: 79c8 4d3c 8147 a03c 7878 0d3c 9515 7e3c
00000300: f2e5 043e c39a 063e e8e4 083e 1858 eb3d
00000310: 062c af3d d2b9 d23d 2b0a 89bd ded8 753d
00000320: 7b44 bdbd 7f05 efbd 39e5 8e3c 8514 25be
00000330: dd4b a53d cf28 59bc 09fc 9d3d 8161 2bbd
00000340: eed8 69bd c46b bb3d d83c 32bd 2263 09bd
00000350: 7387 853d 84cc 03bd 3215 c7bc fe3b 8cbc
00000360: e057 babd d04d 143d c481 e2bb 9f90 e6bd
00000370: 4bf7 c0bd 67cf 56bd dea0 67bd 05bc 2c3d
00000380: a025 643d 949c 283d 1091 aebd e492 663d
00000390: ee7b b1bd dea5 babd d4a4 7ebd 37b5 f83d
000003a0: ae6c 6abd 2a8a 09bd 7555 2fbd d976 83bd
000003b0: fd35 fcbd b25a 153e 6c30 68bd 8261 883c
000003c0: 9034 4b3c 9299 bc3b 5f2c fd3d 2b86 243d
000003d0: 04bc 2fbd decc b63d f03a 9e3b 02c1 7c3b
000003e0: 24a0 eebc ea83 0cbd 2e6b 173d 259a 5b3d
000003f0: d08b a0bc 9012 8dbd 3707 c4bd 9e6b d5bd

actor_mean.4.bias f4 [5]
0.05560387 -0.115518406 0.12914145 -0.07803675 -0.11340464
00000000: e2c0 633d ea94 ecbd a83d 043e bbd1 9fbd
00000010: b140 e8bd

critic.0.weight f4 [64, 140]
-0.058487464 -0.03243432 0.027396895 -0.060646046 -0.038060844 -0.021847611 0.067853056 -0.0017261956
-0.06503348 -0.020260556 0.033378016 -0.060558334 -0.06729141 0.011310807 0.071090475 -0.08254692
0.0710391 -0.059572645 -0.013584332 -0.04280742 0.06755282 -0.041946582 -0.08170116 -0.061346292
-0.00026249397 -0.08706443 -0.035421856 0.021159494 -0.054107387 0.010987277 -0.08850758 0.023030927
0.030854357 0.0064738696 0.017045273 0.07563579 -0.009974553 0.050176136 0.027645085 0.054372884
0.06268585 0.06824335 0.048457615 -0.008286424 -0.076496474 -0.06114581 -0.06279915 -0.066205435
0.024465084 0.021075636 -0.016096666 0.075487226 0.013188056 0.04778774 0.025065375 0.043042567
0.044078898 0.03860711 0.0077651385 -0.08731575 -0.08328346 0.026593117 0.053921532 0.04641578
-0.060857575 -0.047047608 0.009251484 0.053979315 0.061038107 -0.055958517 -0.017126916 -0.021045897
0.0453202 -0.08289513 -0.06327957 -0.09571906 -0.004247178 0.03731012 -0.06890232 -0.015643843
-0.065158576 0.051825188 0.0685748 -0.039214596 0.029329143 0.01750008 -0.06190479 -0.06434854
0.06036037 0.023978522 -0.061733734 -0.04440452 -0.057910446 -0.09179334 -0.060346533 -0.022111533
0.032681704 -0.07198073 -0.08663864 -0.06988719 0.06936782 -0.051349662 0.044245236 -0.0009617838
-0.036925033 0.0038812736 -0.056959417 -0.016727261 -0.038079083 -0.025562426 0.017332928 -0.08395109
-0.08550813 -0.06516472 0.06440672 -0.04129476 -0.027458392 0.037322626 -0.08790979 0.031848073
0.025986321 -0.03170757 -0.028559774 0.0800606 0.03514483 0.012554976 0.042981915 -0.004319694
-0.039075583 -0.05998608 0.059622113 -0.007586836 0.048942536 -0.022983266 -0.0698266 0.05692154
0.0014144883 0.07645948 -0.08517317 0.00065315026 -0.028113801 0.028415378 0.009555677 0.03357956
-0.022503559 0.04318522 0.06756381 -0.062290277 -0.057267897 0.0798109 0.023577407 0.02652855
-0.08920336 0.05739649 -0.030090759 0.03026793 0.023458254 0.03642918 0.0139418645 0.052784786
-0.010825232 -0.044065773 0.027085938 0.07669078 -0.044289257 0.0128456745 0.041558407 0.06835271
-0.073524676 0.09147748 -0.015556351 0.0703103 0.034178145 -0.0060360786 -0.037187267 0.06027124
-0.06319556 0.03225201 0.03245869 -0.05834613 -0.023269292 -0.031525437 -0.05678009 0.019110676
0.0025440431 -0.03583512 0.07416983 -0.035313927 -0.087601796 0.06450251 0.07025282 0.0063717663
-0.05095653 0.07753717 0.0007448328 0.0039615375 0.067987256 0.075378075 -0.03145353 -0.004649967
0.03276871 -0.00029686774 0.07794213 -0.049323924 -0.04416119 -0.060217172 -0.0671667 0.051170863
-0.036270395 -0.03995988 0.020468527 0.08199408 0.01819919 0.013708869 -0.050116714 -0.044239208
0.026454221 -0.059984975 -0.02917758 0.06065546 -0.06951013 -0.041055385 0.05467184 -0.0682902
-0.055897374 -0.044928398 -0.032897484 -0.054429065 0.010242248 0.025142213 0.052323412 0.02317977
0.02177581 -0.06236971 0.07142789 -0.008275759 -0.0004784918 0.030234434 -0.051461264 -0.037676364
-0.079617776 -0.06570155 0.055759862 0.047650307 -0.07514034 0.089119405 -0.08379591 0.009758323
0.055154543 -0.0717121 0.055832237 0.03717869 0.034894474 0.05933199 0.048007313 0.076068364
00000000: 8d90 6fbd d9d9 04bd 746f e03c fd67 78bd
00000010: b0e5 1bbd c3f9 b2bc 8bf6 8a3d 8341 e2ba
00000020: 4630 85bd 77f9 a5bc 63b7 083d 040c 78bd
00000030: 14d0 89bd f750 393c e297 913d 5c0e a9bd
00000040: f37c 913d 7202 74bd d190 5ebc d556 2fbd
00000050: 2259 8a3d 2ed0 2bbd f052 a7bd 4046 7bbd
00000060: 589f 89b9 d64e b2bd 8216 11bd ad56 ad3c
00000070: b59f 5dbd fb03 343c 7643 b5bd 5bab bc3c
00000080: 47c2 fc3c c122 d43b 87a2 8b3c f0e6 9a3d
00000090: 4f6c 23bc 7e85 4d3d f277 e23c 1ab6 5e3d
000000a0: 7061 803d 2bc3 8b3d 7e7b 463d c8c3 07bc
000000b0: 2faa 9cbd 0774 7abd d79c 80bd b796 87bd
000000c0: 006b c83c d0a6 ac3c 28dd 83bc 0c99 9a3d
000000d0: b712 583c 14bd 433d e755 cd3c 674d 303d
000000e0: 138c 343d 7d22 1e3d b472 fe3b 9ad2 b2bd
000000f0: 8590 aabd cfd9 d93c d3dc 5c3d 791e 3e3d
00000100: cb45 79bd feb4 40bd 8993 173c 6a19 5d3d
00000110: 1803 7a3d c234 65bd bf4d 8cbc 7268 acbc
00000120: ada1 393d ecc4 a9bd b898 81bd 5b08 c4bd
00000130: e92b 8bbb 7fd2 183d a91c 8dbd 8427 80bc
00000140: dc71 85bd a646 543d f270 8c3d 7c9f 20bd
00000150: ac43 f03c 545c 8f3c e18f 7dbd 2bc9 83bd
00000160: 6f3c 773d 9b6e c43c 83dc 7cbd 84e1 35bd
00000170: 8133 6dbd 26fe bbbd ed2d 77bd 3f23 b5bc
00000180: 40dd 053d a26a 93bd 996f b1bd 0421 8fbd
00000190: b710 8e3d 0654 52bd 7e3a 353d 3820 7cba
000001a0: b43e 17bd f75c 7e3b 474e 69bd 9c07 89bc
000001b0: d0f8 1bbd 4b68 d1bc c9fd 8d3c 8dee abbd
000001c0: e31e afbd 1575 85bd ace7 833d b224 29bd
000001d0: 6cf0 e0bc 9cdf 183d 0c0a b4bd 2073 023d
000001e0: 44e1 d43c ccdf 01bd 30f6 e9bc d0f6 a33d
000001f0: 06f4 0f3d 63b3 4d3c ce0d 303d 388c 8dbb
00000200: b80d 20bd f7b3 75bd 5136 743d fe9a f8bb
00000210: f877 483d 6747 bcbc 4001 8fbd 9026 693d
00000220: 5a66 b93a ca96 9c3d 456f aebd 2c38 2b3a
00000230: ea4e e6bc 5ec7 e83c 6a8f 1c3c b98a 093d
00000240: 6259 b8bc fce2 303d e55e 8a3d 1724 7fbd
00000250: be91 6abd e673 a33d 6825 c13c 6752 d93c
00000260: 40b0 b6bd 9518 6b3d e580 f6bc 73f4 f73c
00000270: 862b c03c c436 153d 6b6c 643c dc34 583d
00000280: 505c 31bc 507e 34bd 54e3 dd3c 0e10 9d3d
00000290: a768 35bd aa76 523c 2639 2a3d 81fc 8b3d
000002a0: 1b94 96bd 8c58 bb3d 11e0 7ebc d9fe 8f3d
000002b0: 62fe 0b3d 4cca c5bb ad51 18bd fade 763d
000002c0: ac6c 81bd af1a 043d 67f3 043d 5afc 6ebd
000002d0: 3e9f bebc d120 01bd 3d92 68bd fe8d 9c3c
000002e0: f6b9 263b d9c7 12bd 5ae6 973d 56a5 10bd
000002f0: 9268 b3bd e419 843d b6e0 8f3d 40ca d03b
00000300: cbb7 50bd cfcb 9e3d e240 433a c9cf 813b
00000310: e73c 8b3d d25f 9a3d 6bd5 00bd c05e 98bb
00000320: 7c38 063d eaa4 9bb9 20a0 9f3d e207 4abd
00000330: 5de2 34bd 48a6 76bd b28e 89bd 8a98 513d
00000340: 4490 14bd f9ac 23bd 9dad a73c 83ec a73d
00000350: 7816 953c 2a9b 603c 2f47 4dbd 2c34 35bd
00000360: 86b6 d83c ceb2 75bd d205 efbc dc71 783d
00000370: 545b 8ebd b129 28bd 94ef 5f3d bbdb 8bbd
00000380: a5f4 64bd d706 38bd 83bf 06bd 03f1 5ebd
00000390: 1acf 273c 0bf7 cd3c 1351 563d 80e3 bd3c
000003a0: 2f63 b23c 6277 7fbd c948 923d 0d97 07bc
000003b0: 15de fab9 34ae f73c 0cc9 52bd 8852 1abd
000003c0: a50e a3bd 898e 86bd 7464 643d f82c 433d
000003d0: 2ee3 99bd 3c84 b63d 319d abbd 60e1 1f3c
000003e0: bbe9 613d cbdd 92bd 58b0 643d af48 183d
000003f0: 82ed 0e3d 1a06 733d 51a3 443d bbc9 9b3d

critic.0.bias f4 [64]
-0.029460276 0.051449247 -0.09241444 -0.014034996 -0.043615084 -0.009708552 -0.06505557 0.071479715
0.009117155 0.035359547 0.08052295 0.01813031 0.05210674 0.006772132 -0.008791759 0.0054782405
0.09332133 0.022985846 0.070160426 0.023563722 -0.01782825 -0.06076066 0.06763523 -0.06014949
-0.07940125 0.058095954 0.036481924 0.06623402 0.07666715 -0.019324468 -0.057065893 0.047177054
-0.023039578 0.07862166 -0.0038978104 0.058933903 -0.07763479 -0.04838719 0.018318152 0.073196724
0.071615055 -0.0351241 0.03732081 0.07584267 0.002450121 -0.06786419 -0.047710426 -0.02675607
0.01235658 0.06469971 0.07626859 -0.03453444 0.07042362 0.055437285 0.0019707119 0.08639024
0.0169356 0.061859224 -0.031072633 0.034795314 0.054851934 0.049879555 -0.05647638 -0.08503096
00000000: ad56 f1bc 72bc 523d c843 bdbd 0af3 65bc
00000010: bba5 32bd 9e10 1fbc db3b 85bd f563 923d
00000020: 1f60 153c 2cd5 103d 37e9 a43d 0486 943c
00000030: e16d 553d c3e8 dd3b 4f0b 10bc d082 b33b
00000040: 411f bf3d d04c bc3c 45b0 8f3d b508 c13c
00000050: 8d0c 92bc 2be0 78bd 5784 8a3d 505f 76bd
00000060: 1f9d a2bd 06f6 6d3d 126e 153d b4a5 873d
00000070: ab03 9d3d 594e 9ebc edbd 69bd ba3c 413d
00000080: 7fbd bcbc 6504 a13d 6872 7fbb ad64 713d
00000090: fdfe 9ebd a531 46bd f30f 963c 2ae8 953d
000000a0: eaaa 923d 4ade 0fbd b5dd 183d 6753 9b3d
000000b0: 3692 203b 61fc 8abd 026c 43bd 8c2f dbbc
000000c0: 4173 4a3c 4881 843d b532 9c3d fc73 0dbd
000000d0: 423a 903d 3512 633d 0f27 013b 5eed b03d
000000e0: 87bc 8a3c 1960 7d3d 098c febc 8885 0e3d
000000f0: 6cac 603d 814e 4c3d c753 67bd b624 aebd

critic.2.weight f4 [64, 64]
0.07928307 0.09648523 0.056633104 0.10067205 -0.016293436 -0.10904863 -0.10954796 -0.0059146355
-0.073387615 -0.023875643 -0.104525566 0.045094445 -0.008589982 0.08224822 0.058712326 -0.027685806
-0.1088392 -0.09167763 -0.08199433 0.027952429 0.015315709 0.06615534 -0.07541598 0.09854339
-0.0008726991 0.042328104 -0.03670952 -0.02434934 0.02529069 0.0039042537 0.08442825 0.0016261997
-0.038320087 -0.022772333 0.11220338 -0.025551874 0.043515693 -0.10087265 0.047921572 -0.09824441
0.028535271 -0.041278828 0.04901801 0.11369458 -0.0037745729 -0.055507604 -0.041727263 0.1112024
0.12536399 0.0669202 0.007524854 0.03834622 -0.01958767 -0.075811364 -0.036580388 -0.04074789
-0.049071033 0.102436006 -0.08465977 0.080587335 0.0050416077 0.06548756 0.06533967 -0.11658296
-0.10783219 -0.06054216 -0.017555727 -0.062754504 0.028401695 0.11424247 -0.018211411 -0.07256316
0.04887649 -0.08632188 0.051325385 -0.012643942 -0.107612096 0.040817395 -0.06344158 0.015720636
-0.0178191 0.04963729 0.08747925 0.041085128 0.11617165 0.046535034 0.12101957 -0.058583893
-0.06952164 0.021332668 0.022909978 -0.050704572 -0.09330853 -0.05049502 0.055023514 0.07865964
0.08502265 -0.03271952 -0.12095329 -0.11407391 -0.050568987 0.11010804 -0.13067411 -0.08021831
0.0017861094 0.06945477 -0.032248985 0.11383054 -0.072168715 -0.061883386 -0.12106279 -0.10488125
0.038131747 0.113422334 -0.0725639 0.070085585 -0.08524368 -0.113359675 0.07600066 -0.12542422
-0.09530058 -0.008031604 -0.003090531 -0.027279662 -0.062471855 0.085064664 -0.052772567 0.001510351
-0.064713985 -0.12207451 0.09229068 0.046829768 0.028199168 0.05818428 0.019274162 -0.018562332
-0.00972875 -0.0010508336 0.042961545 0.013746161 -0.024338005 -0.047588803 0.031532526 0.0068285535
-0.07801028 -0.097268306 0.043619968 0.09303964 0.113087624 0.13572195 -0.094201066 -0.060411662
-0.017607613 -0.11293117 0.1306013 0.025699414 -0.072905704 -0.1206214 -0.019226609 0.057531636
-0.03954803 -0.09725972 0.052605 0.008226413 -0.011376252 -0.09399142 -0.047649402 -0.03435521
0.018698487 -0.022583649 0.028658045 -0.106506646 0.0116118435 0.10544446 0.027085165 -0.11938697
0.07995615 -0.017323341 -0.06667589 0.07729885 0.0047089197 0.030627765 -0.094400994 -0.10837181
0.035809465 -0.1057185 -0.039392978 -0.04621643 -0.065247305 0.023398662 0.08590161 0.017555915
0.09935973 0.11214533 -0.033135816 0.0527302 0.020639978 0.12601161 0.030259492 -0.0495028
0.11700168 0.08445935 0.09828886 -0.081616886 0.0916651 -0.0023527972 0.08459664 0.11451702
0.027338672 -0.12092119 0.072194904 -0.11235544 0.022704339 0.12355999 -0.056504 -0.04593071
-0.06474347 0.01759826 -0.016112728 0.081000306 -0.023448398 0.117421955 -0.08456433 -0.0813818
0.10641159 -0.11035941 -0.09614773 -0.08450582 0.055634215 -0.08159164 -0.010097747 0.09040974
-0.08884172 0.08608273 -0.0048917416 0.11620617 0.10006597 0.03641614 0.11230888 -0.0804384
-0.03593605 -0.10406772 -0.028865179 0.05410485 0.11034528 -0.07614342 0.050005913 0.121959664
-0.047913134 -0.09095595 0.0025077537 0.055297073 0.030569144 0.09415342 -0.13403526 0.0130839525
00000000: 2a5f a23d 0c9a c53d 1df8 673d 262d ce3d
00000010: d079 85bc e354 dfbd ae5a e0bd 8fcf c1bb
00000020: 3f4c 96bd da96 c3bc 8011 d6bd f4b4 383d
00000030: ffbc 0cbc c171 a83d 567c 703d 58cd e2bc
00000040: 16e7 debd 7bc1 bbbd a5ec a7bd 7efc e43c
00000050: bdee 7a3c 737c 873d b173 9abd 1ed1 c93d
00000060: d8c5 64ba 3c60 2d3d b95c 16bd 4478 c7bc
00000070: 6c2e cf3c 82de 7f3b b8e8 ac3d 3526 d53a
00000080: 86f5 1cbd 0b8d babc e3ca e53d 2a52 d1bc
00000090: 833d 323d 5296 cebd 6949 443d 5d34 c9bd
000000a0: cdc2 e93c fd13 29bd 1cc7 483d b4d8 e83d
000000b0: d35e 77bb f15b 63bd 35ea 2abd 15be e33d
000000c0: 6b5f 003e 750d 893d 0d93 f63b ed10 1d3d
000000d0: 5276 a0bc fd42 9bbd 51d5 15bd 42e7 26bd
000000e0: b5fe 48bd f8c9 d13d 1a62 adbd f90a a53d
000000f0: 1234 a53b 581e 863d ced0 853d 0cc3 eebd
00000100: 20d7 dcbd 0efb 77bd 07d1 8fbc 6f85 80bd
00000110: acaa e83c f5f7 e93d 1930 95bc fe9b 94bd
00000120: b732 483d 87c9 b0bd 913a 523d 8928 4fbc
00000130: bb63 dcbd 2430 273d a9ed 81bd 90c8 803c
00000140: 5cf9 91bc 7950 4b3d 5228 b33d e148 283d
00000150: 67eb ed3d 859b 3e3d 1cd9 f73d aaf5 6fbd
00000160: 5d61 8ebd d9c1 ae3c b5ad bb3c 99af 4fbd
00000170: 8b18 bfbd ded3 4ebd 5660 613d 4e18 a13d
00000180: 5b20 ae3d e704 06bd 5cb6 f7bd 959f e9bd
00000190: 6d21 4fbd 5380 e13d 6fcf 05be 7f49 a4bd
000001a0: e31b ea3a 4d3e 8e3d 8317 04bd fc1f e93d
000001b0: 31cd 93bd 6f79 7dbd c5ef f7bd fbcb d6bd
000001c0: 0930 1c3d f849 e83d 629c 94bd 0889 8f3d
000001d0: 3d94 aebd 1e29 e8bd 3ca6 9b3d 356f 00be
000001e0: f32c c3bd fd96 03bc 828a 4abb 9979 dfbc
000001f0: 7de2 7fbd 6236 ae3d 0c28 58bd f8f6 c53a
00000200: c488 84bd 3302 fabd e502 bd3d 92d0 3f3d
00000210: f101 e73c a452 6e3d d9e4 9d3c 0810 98bc
00000220: 5665 1fbc 20bc 89ba 72f8 2f3d 9437 613c
00000230: 7f60 c7bc 7aec 42bd 4028 013d 0fc2 df3b
00000240: dbc3 9fbd 9b34 c7bd daaa 323d 918b be3d
00000250: 7c9a e73d b2fa 0a3e 7dec c0bd 3872 77bd
00000260: d73d 90bc 7548 e7bd 59bc 053e 9487 d23c
00000270: 964f 95bd 5a08 f7bd 1f81 9dbc 4ba6 6b3d
00000280: 1dfd 21bd 1b30 c7bd 5778 573d 14c8 063c
00000290: 7663 3abc 937e c0bd 052c 43bd 0cb8 0cbd
000002a0: 922d 993c 5801 b9bc 47c4 ea3c 2820 dabd
000002b0: 9a3f 3e3c 44f3 d73d b5e1 dd3c 2881 f4bd
000002c0: 0dc0 a33d aee9 8dbc 5e8d 88bd dc4e 9e3d
000002d0: 484d 9a3b 14e7 fa3c 4f55 c1bd 0af2 ddbd
000002e0: f2ac 123d f182 d8bd 885a 21bd 704d 3dbd
000002f0: 61a0 85bd 8dae bf3c 2fed af3d 6cd1 8f3c
00000300: 1d7d cb3d 73ac e53d 6cb9 07bd 9ffb 573d
00000310: 2c15 a93c 3009 013e c1e2 f73c 73c3 4abd
00000320: 949e ef3d 06f9 ac3d ab4b c93d c126 a7bd
00000330: e9ba bb3d 6331 1abb 0141 ad3d e687 ea3d
00000340: 5af5 df3c 87a5 f7bd ecda 933d 9c1a e6bd
00000350: 73fe b93c 050d fd3d bd70 67bd d721 3cbd
00000360: 3998 84bd 3a2a 903c d7fe 83bc 7de3 a53d
00000370: db16 c0bc ec7a f03d 1030 adbd 80ab a6bd
00000380: 52ee d93d 1d04 e2bd 1ae9 c4bd 6311 adbd
00000390: b4e0 633d 8519 a7bd 0571 25bc be28 b93d
000003a0: a6f2 b5bd 244c b03d e74a a0bb 80fd ed3d
000003b0: 63ef cc3d 1729 153d 3302 e63d e3bc a4bd
000003c0: ae31 13bd 7521 d5bd ab76 ecbc 0c9d 5d3d
000003d0: b5fc e13d 15f1 9bbd 00d3 4c3d fdc5 f93d
000003e0: 9040 44bd 1d47 babd 2059 243b 2f7f 623d
000003f0: 246c fa3c 82d3 c03d 8a40 09be 135e 563c

critic.2.bias f4 [64]
-0.05530293 0.08779354 0.08754975 -0.0027556813 -0.031096099 0.00022958196 0.08723749 0.10959401
0.033952434 -0.10674648 0.10792529 0.05824044 0.12273497 -0.09712655 -0.015472567 -0.09857993
-0.10237917 -0.009335575 0.044739775 0.076496266 0.0077093476 0.11818046 -0.060533963 -0.00924687
-0.112072155 0.09054756 0.09013298 0.1142184 -0.04128093 0.023626566 -0.043324634 0.12200966
-0.06308593 0.023685414 -0.06026848 -0.091981806 -0.042720642 0.070542306 -0.03478343 -0.11542947
-0.099755 0.092527516 0.10915733 -0.0022280267 0.014525815 -0.06401759 -0.0074344287 0.0864007
-0.016424345 0.11538885 -0.11798933 -0.037358858 0.0187875 -0.11499721 0.12518206 0.082763314
-0.10104362 0.090741105 0.11720015 -0.061011814 0.08031453 -0.039014783 -0.014060181 -0.09725127
00000000: 5385 62bd 19cd b33d 494d b33d a998 34bb
00000010: 3fbd febc f0bb 7039 92a9 b23d d372 e03d
00000020: b511 0b3d e69d dabd ef07 dd3d 878d 6e3d
00000030: 795c fb3d 49ea c6bd a680 7dbc 46e4 c9bd
00000040: 2cac d1bd 3df4 18bc 0e41 373d 13aa 9c3d
00000050: b29e fc3b 9908 f23d 76f2 77bd 2f80 17bc
00000060: 1686 e5bd 0071 b93d a497 b83d 56eb e93d
00000070: 3116 29bd 808c c13c 2c75 31bd 33e0 f93d
00000080: 3233 81bd ea07 c23c 15dc 76bd f560 bcbd
00000090: d7fb 2ebd 7c78 903d 1279 0ebd 4966 ecbd
000000a0: 594c ccbd 117f bd3d e18d df3d 1604 12bb
000000b0: affd 6d3c a71b 83bd 829c f3bb daf2 b03d
000000c0: 598c 86bc fd50 ec3d 64a4 f1bd 9a05 19bd
000000d0: 3ee8 993c a883 ebbd ba2f 003e d07f a93d
000000e0: f5ef cebd 79d6 b93d a206 f03d 86e7 79bd
000000f0: f27b a43d f7cd 1fbd ac5c 66bc ad2b c7bd

critic.4.weight f4 [1, 64]
0.09667544 0.015553676 -0.07409908 -0.11972 -0.058150355 -0.10005852 -0.10432415 -0.10672812
-0.07260637 -0.049799506 -0.044259597 0.083426274 -0.101416185 -0.07868187 -0.0027489814 -0.07476701
0.03314885 -0.023631297 -0.03507941 0.0583697 -0.07306741 0.019538326 -0.013944636 0.0035014723
-0.037686426 -0.055838637 -0.056753755 0.053218104 0.016216855 0.09485828 0.09722864 0.025399452
0.036191173 0.060215347 -0.045106124 -0.03683828 0.10748625 -0.03708722 0.107970975 0.08350117
0.075517416 -0.027536202 -0.0090537565 0.041788056 -0.004401618 0.015217988 -0.08208933 -0.06226844
-0.06357336 -0.058287892 0.04331799 0.1032489 0.10501351 0.09829375 0.08330975 0.06154353
0.0885024 0.0797666 0.005178987 0.08970266 0.10734796 0.109872125 0.06462555 0.042904843
00000000: c6fd c53d d8d4 7e3c 42c1 97bd c22f f5bd
00000010: 112f 6ebd 7beb ccbd e6a7 d5bd 4694 dabd
00000020: a6b2 94bd 91fa 4bbd 8d49 35bd 65db aa3d
00000030: 4ab3 cfbd f623 a1bd 4128 34bb 721f 99bd
00000040: 17c7 073d 6c96 c1bc 6daf 0fbd 1115 6f3d
00000050: 5ea4 95bd d70e a03c 0b78 64bc f578 653b
00000060: 155d 1abd 0eb7 64bd a076 68bd 3afb 593d
00000070: 36d9 843c 0f45 c23d cf1f c73d 8312 d03c
00000080: 323d 143d 5ea4 763d 33c1 38bd bce3 16bd
00000090: c021 dc3d c5e8 17bd e31f dd3d a902 ab3d
000000a0: e0a8 9a3d 9a93 e1bc 3556 14bc f429 2b3d
000000b0: 733b 90bb de54 793c 731e a8bd 310d 7fbd
000000c0: c032 82bd 49bf 6ebd 346e 313d 2974 d33d
000000d0: 5311 d73d 3c4e c93d 4d9e aa3d 1215 7c3d
000000e0: bf40 b53d ac5c a33d 7eb4 a93b 07b6 b73d
000000f0: 3fd9 db3d a304 e13d 665a 843d fdbc 2f3d
